bc_policy.pth (torch, 749613 bytes, 6 tensors)

net.0.weight f4 [256, 464]
00000000: bd06 023d 8efa 353d 3b41 b63c 0e38 94bb
00000010: c08c c839 8fcf edbc ba53 debc d4e3 88bb
00000020: 17d5 053b 1250 a4bc e932 8cbc c904 633d
00000030: 7522 2dbd b7ba 843d 5507 fe3d ed03 16be
00000040: 29a8 283d 244c 623c 5365 42bd 65a5 8e3c
00000050: 5083 07bc 76c0 3fbd 26cd 1ebd 2e4e b2bc
00000060: 3cac c73b ba2c 113d 7ed7 c3ba 3559 0b3c
00000070: 00b9 1d3d ad1a 06bd eb07 c63a 299c 30bb
00000080: 373c f9bc 5389 0cbd c6a9 dcbc 5c65 b7bc
00000090: d364 d73c 5b00 59bd 7c8c f63c 5ad0 f2b6
000000a0: 7386 ff3c ae58 eebc b893 083b 565b 103e
000000b0: f977 74bd 66af 24bd c5e5 f23b c070 a43b
000000c0: e308 4f3a df1c 043d 732c a6bb 5d40 183d
000000d0: 9ce4 713c 647f 27bd ec02 a3ba 895c b73b
000000e0: af26 773c ba06 123d eda4 063d 9bfb bc3c
000000f0: fa57 95bb c23a 0dbd 30ae 923c 54c6 103d
00000100: 8337 c8bc e598 a5bc e46d 20bd c861 afbc
00000110: 84e4 233d db19 7a3d 77fb 56bd c45c 4e3d
00000120: 4b15 a33d 1816 15be 4eda d23c f9d1 41bb
00000130: b2d6 cdbc 7705 14bd 66fe 253c 9cb3 10bd
00000140: f799 1f3d 0ae9 44bd 728e d7bc aa09 88bc
00000150: 28a5 98bb 065a 9cbc 585a 233d 3165 d6bc
00000160: 29c3 313d e920 0f3d 4357 7739 9d85 b53a
00000170: 44b6 583c 6d8d 9abc 6f59 313d 3b84 82bd
00000180: 67c8 efb9 80af ef3b 840e b3bc c3b9 8abd
00000190: 737f b2bb 3a92 0f3e 0a60 12be 6807 153c
000001a0: f668 d0bc 7a35 9abc c291 993c e273 dd3c
000001b0: 6798 efbc 45ef 0a3d a899 9c3c 3877 50bd
000001c0: 62bd 653c f9f2 9dbc 18c5 843b 042f 073d
000001d0: f1d5 593d 7c6c 7d3c 5f1b 82bc d63d 4b3c
000001e0: 98d7 07bd 8c77 89bc 2689 16bb 5f27 0abd
000001f0: cb7b 0fbc 8420 eabb ece7 1fbc 77c4 1bbc
00000200: dbd5 973c 9598 40bc 4eea ea3d 5a16 98bd
00000210: e375 2ebc d658 913c 7caf 7b3b 3cd3 3dbd
00000220: f106 afbb 8d87 c83c ca1b acbc fec7 d83c
00000230: 4582 8cbd d200 1f3d a61e ea3c 00f5 2c3a
00000240: 96ed 98bc 91bb 333c 19f8 fabc a3a0 0abd
00000250: e92b 8b3b 049a 6c3c 2074 2f3d 00e1 71bb
00000260: 709b 313c deea d0bc ee37 983c 35c5 12bc
00000270: 9050 193a ea58 bbbc 6d9d 1e3d ad56 9d3d
00000280: 7de5 86bd 612c 563c 30f2 283c 8b89 133c
00000290: 9fd0 aa3b 990e fc3c 0930 f0bc e100 1e3d
000002a0: 13b0 b4bc 1b8e d2bb 935f 303d 0754 ad3c
000002b0: 66f8 42bc 4c87 d03c e109 76bc 597c 75bc
000002c0: 871c abba 68d2 70bc 3616 9fbc 0e3e 253d
000002d0: 5b57 04bd 9f60 aa3c c1ba 39bc 6ea5 ecbb
000002e0: 5922 8c3c 8700 0a3d b6e7 05bd ad57 03bd
000002f0: 6f3d e53d 0fc5 8cbd 1c46 11bc a40f d2bc
00000300: 0d3f 003c bcd6 2a3d 85aa 21bd e431 3dbd
00000310: e7b7 58bc aa8e cb3b 500d debc 4be5 cabc
00000320: 647b b93c 4c07 1d3d 97b2 0e3c ded3 0c3d
00000330: 3c00 6dbc 2d49 973c e8db 1abd 7824 cdbc
00000340: acca 1fbb ef2f 173c 6aba 0cbd 2dc3 d33c
00000350: 7910 25bb c290 32bd 7e59 bdbc 9346 983c
00000360: 80f5 0d3d f27e fa3d 9a24 0ebe feb0 dabc
00000370: de10 fa3c e20a 9cbc a62c 283d 700c 5dbd
00000380: 5a3f 9dbc afc9 21bc 6f9a 61bc a8f5 49bd
00000390: d412 8bbc fd34 d1bc d670 123d 9be5 bdba
000003a0: 76e0 f1bc 52fa 2dbd fbce 52bc 8361 143d
000003b0: f631 d43c e63c b0bc 4935 2c3b 662b 78bc
000003c0: cdbe 70bc 1057 b63c 586f 17bd d30a 1a3d
000003d0: e690 613b b4ec c3bc c78b b93d 1c78 febd
000003e0: 5c66 e2bc 7f51 8fbc 4886 05bd 6927 b4bc
000003f0: 3a0d a13c dbc7 02ba dbbb bb3c d4b8 1cbd
0.031744707 0.0444284 0.022247901 -0.004523284 0.0003825184 -0.029029636 -0.027139533 -0.00417755
0.00204212 -0.020057712 -0.01711412 0.055424485 -0.04226919 0.064809255 0.12403742 -0.14649935
0.041175995 0.013812099 -0.04745991 0.01741285 -0.008271053 -0.046814404 -0.038769864 -0.021765795
0.00609353 0.035443045 -0.0014941541 0.008505155 0.038506508 -0.032740284 0.0015108561 -0.0026948547
-0.03042422 -0.03431065 -0.026936423 -0.0223872 0.026293194 -0.052978855 0.030096285 -7.2364173e-06
0.03119204 -0.02909502 0.002084 0.14097342 -0.059684727 -0.040206335 0.0074126446 0.0050183237
0.00078977476 0.032254096 -0.0050712167 0.037170757 0.014763977 -0.040892974 -0.0012436784 0.005595748
0.0150849065 0.035650946 0.03287213 0.023069194 -0.0045576068 -0.034479864 0.017905325 0.03534539
-0.024440533 -0.020214507 -0.0391673 -0.02140893 0.04001285 0.061059814 -0.05248591 0.050381437
0.07963046 -0.1455921 0.025738861 -0.0029574616 -0.025126789 -0.036138024 0.010131454 -0.03532754
0.03896519 -0.048073806 -0.02631304 -0.01660617 -0.00465836 -0.019085895 0.03988108 -0.026171299
0.04339901 0.034943495 0.00023588263 0.0013849024 0.013227049 -0.018866265 0.04329818 -0.06372877
-0.00045734944 0.0073146224 -0.021857508 -0.067737125 -0.005447322 0.14020625 -0.14294448 0.009096004
-0.025440674 -0.018824328 0.01874626 0.027032796 -0.029247476 0.03391959 0.019116238 -0.050894946
0.014022203 -0.019280897 0.0040518157 0.033003822 0.053182546 0.015467759 -0.015882192 0.01240488
-0.03316459 -0.016780637 -0.002296993 -0.033728953 -0.008757542 -0.0071449894 -0.009759884 -0.00950729
0.018534591 -0.011755128 0.11470471 -0.07426138 -0.010648224 0.017742556 0.0038404157 -0.046344027
-0.0053414037 0.024478698 -0.021009345 0.026462551 -0.068607844 0.03881914 0.028579067 0.0006597787
-0.018667977 0.010970012 -0.03063588 -0.0338446 0.004247178 0.014441017 0.042835355 -0.0036907792
0.010840282 -0.025502618 0.018581357 -0.008958151 0.00058484916 -0.022869546 0.03872435 0.07682548
-0.0658674 0.013072104 0.010311648 0.009004961 0.005212858 0.03076868 -0.02931978 0.038575057
-0.022056615 -0.0064256317 0.043059897 0.021158231 -0.011900043 0.02545514 -0.015017004 -0.01498326
-0.0013054766 -0.014698602 -0.01941977 0.040342383 -0.03230987 0.020798026 -0.0113360295 -0.007221869
0.017106222 0.03369191 -0.03269168 -0.032066036 0.11193358 -0.068735234 -0.008866813 -0.025642224
0.0078275325 0.041708693 -0.03946926 -0.046190158 -0.0132274395 0.0062120752 -0.027105957 -0.024767539
0.022641845 0.038337037 0.008709571 0.03438174 -0.014465388 0.01846751 -0.037807375 -0.025041804
-0.0024382276 0.009227737 -0.034357466 0.025849903 -0.002518682 -0.043595083 -0.023113962 0.01858834
0.034657955 0.12231244 -0.1388115 -0.026695725 0.030525621 -0.019048158 0.041058205 -0.05396694
-0.019195247 -0.009874745 -0.01376973 -0.04930654 -0.016976751 -0.025537962 0.03575214 -0.0014487983
-0.029525977 -0.042475052 -0.012866731 0.036225807 0.02590273 -0.021513414 0.0026276878 -0.015147066
-0.014693928 0.022258312 -0.03697142 0.03760798 0.0034418642 -0.02391658 0.090598635 -0.12425253
-0.0276367 -0.017494915 -0.032598764 -0.021991448 0.019659627 -0.0004988887 0.022916725 -0.038262203

net.0.bias f4 [256]
00000000: 22e3 f83c 2412 f6b9 143d b4bc 0bc5 07bd
00000010: 3e1e e93c 20d9 883c 54a4 2d3d ed38 1c3d
00000020: c36f e23c 9b9a 15bd 8981 2f3c e4d5 9fbc
00000030: 3797 893c 95e2 2a3d 223b 2dbd 7a99 97bc
00000040: 705f 373c 6056 7f3c 2b6c c9bc af5e fcbc
00000050: 4cec 08bd fb51 73bc f19a 3abd aefa a9bc
00000060: 060d f03c a2c1 ff3c 999b 27bd 4bda 18bd
00000070: 4463 9a3c fd6f 4e3c fc5e c33c 0a41 0fbc
00000080: 1fb8 19bc 33ba 183d e632 8f3c 4944 193d
00000090: d708 88bb 9b67 4ebc 20fd 6a3b f158 b1bb
000000a0: 8e78 0dbd 7402 d0bc a831 1f3d 7558 6d3c
000000b0: 3f2b f4bc 44ba 073d ee0f 123d 11be 31bc
000000c0: 3343 aa3c 40c9 11bd dcaa 343d 6c5f 2cbc
000000d0: fc82 053d 96a5 0abd ab0e 00bc 6d4b 1abd
000000e0: 07df 08bd 99ce 10bc 4aed 85bc 81c4 0dbd
000000f0: ca64 c4bc e6cb 933c 5169 5a3c 5912 f73c
00000100: ea23 e63c 51a4 653c 3eba 00bd 39b7 3abd
00000110: 0a24 6fbb 11a9 193d 316d 233d b58f bdbc
00000120: 3da4 073c a455 233d 32fc 6e3c 6279 d9bc
00000130: 862b 40ba 6846 403d 0365 d1bc b5cb 51bc
00000140: 29fa ed3c 27fc 873c f2ce 32bc b1cf 9ebc
00000150: 0f5b 3abd 07ed 31bd 2c04 d3bc 909d 39bd
00000160: 045c 1b3c 7349 3cbd 6fb1 133b d541 893c
00000170: 7c2f 8ebc 07e0 6fbc 5781 d1bc 0e65 953c
00000180: da10 e4bc fde1 3b3c c5d4 dabc 882c d9bc
00000190: 64c7 2bbd f03b 7cbc 93c1 113c 2f5b bb3c
000001a0: dbbd cbbc 4f72 24bd 7a89 2c3d 8999 1c3d
000001b0: bdf8 093a e7e9 11bc c48b 47bc e3a0 a23a
000001c0: 8710 043c b09d c2bb 5b6e 1dbc 2327 64bc
000001d0: a2cf eebc 436a cd3c 6065 80bc 68de 123c
000001e0: f031 2ebd 6a5c adbc f28e ffbc 9e09 37bc
000001f0: 7d37 abbc 2a0a 1f3c 009a f3bb 3641 c83c
00000200: 5831 a7bc 167e b0bc 1372 a73b 8dd2 aa3c
00000210: 9684 22bd c5d6 fc3c a72d 30bd 83b1 7d3a
00000220: 1e40 8cbc 3b42 e73c 3c71 103d 84c1 97bc
00000230: 38c7 8fbc 6d51 14bc 8500 a8bc d1a6 133d
00000240: 584c 213d 745a 23bd c663 003d 85e4 963c
00000250: 7b9d d33c 3e6b 37bd 1c6f 0bbd 28bb fd3b
00000260: 2b00 303c d551 b8bc 9a27 e6bc 9947 0cbd
00000270: 15ef 443d 4055 a93c b092 b1bc aa66 223d
00000280: db43 5d3c 324a b43c 9d7c ab3c 8b99 163d
00000290: 6c3e ffbc 59d4 363c 8016 0cbd 60fe a63c
000002a0: 3031 363d 1e58 c1bc 1fb4 95bc 3d3b 223d
000002b0: c757 c3bc 3af7 013c d6fa 7cbb 1b4f 8abc
000002c0: 9564 283d e291 773c 140e 74bc 45c3 18bd
000002d0: c5a2 0bbd e7ba 083d 5101 afba 4bc6 e83c
000002e0: 4e89 adbc 5166 133b 621d a2bc c715 153d
000002f0: bdbc 99bc c58e 143d 2821 f13c a045 ecba
00000300: 1304 83bc 1fa2 bd3c 2173 75bc 7665 6fbc
00000310: bfe1 1bbd 32fd b8ba a0c2 d5bc 4dab 943c
00000320: e561 aabc bceb 983c 8706 75bc fc05 5e3c
00000330: d5f8 843c 8d2e 1c3d 13bf 33bc bc03 1dbd
00000340: 2f3c dc3a 6e90 1ebd 7562 893c de83 2a3d
00000350: f802 e4bc cfc2 7a3c 8d5e ec3c 25af 90bb
00000360: 0664 033d 3025 3c3c 4ad4 913b 092f 2f3d
00000370: a05e 04bd 388a 313d 9b42 123d 2fbc 3cbd
00000380: 7e70 33bd 7c00 a93c 5efc 33bd a02f efbb
00000390: b2b7 a0bc d905 9738 5890 abbc 382b 2f3d
000003a0: 3eb0 1e3d 2cb1 443b bd02 263d aa98 24bd
000003b0: 1d94 033d 515a 23bd c5a3 613b db3b 1dbc
000003c0: 677f 1f3d 9a52 c83c 9a91 24bd 32d5 3ebd
000003d0: 708b e4bc 4dbe 0fbd 1143 1cbd 8d07 01bc
000003e0: 37ad 203c 63be 84bc 36b3 dabc 712c 5f3d
000003f0: f28a ce3c ca12 83bc 7bf1 b9bc 64fe 32bd
0.030381743 -0.00046934292 -0.02200178 -0.0331469 0.028456803 0.016705096 0.042393044 0.038140226
0.027641183 -0.036524396 0.010712036 -0.01951117 0.016795738 0.04171999 -0.04229272 -0.0185058
0.011192188 0.015584558 -0.024587711 -0.030806867 -0.033428475 -0.014851089 -0.04555792 -0.020749416
0.029303085 0.031220261 -0.040919874 -0.037317555 0.018846162 0.012599942 0.023849003 -0.008743534
-0.009382277 0.03728695 0.017480325 0.037418637 -0.0041514444 -0.012597944 0.003585644 -0.005412214
-0.034538798 -0.025391795 0.038865715 0.014486422 -0.029805778 0.03313662 0.035659723 -0.010848538
0.020783996 -0.035592318 0.044108257 -0.010520797 0.03259562 -0.03384932 -0.007815997 -0.037669588
-0.03341582 -0.008838319 -0.0163485 -0.03461123 -0.023973841 0.018041562 0.013330773 0.030160116
0.028093297 0.014016227 -0.031427614 -0.04558489 -0.0036489987 0.03751475 0.039899055 -0.023139814
0.008278904 0.039876595 0.014586495 -0.026547138 -0.0007330704 0.046942145 -0.025560861 -0.012804915
0.02904995 0.016599728 -0.010913597 -0.019386144 -0.045496996 -0.043438938 -0.025758825 -0.04531628
0.009482387 -0.045968484 0.0022536179 0.016755024 -0.017356627 -0.014640815 -0.02557437 0.018236663
-0.027840067 0.011467454 -0.026712785 -0.026510492 -0.0419382 -0.01539515 0.008896249 0.022870628
-0.024870804 -0.040148076 0.042123295 0.03823236 0.00052632 -0.008905864 -0.012179319 0.0012407567
0.008060581 -0.005939208 -0.00960883 -0.013925347 -0.029151741 0.025075084 -0.01567334 0.008964159
-0.042528093 -0.02116223 -0.031196091 -0.0111717265 -0.020900482 0.009707013 -0.0074341297 0.024445157
-0.020409271 -0.021544497 0.0051100343 0.020852352 -0.039677225 0.030864129 -0.043012287 0.00096776354
-0.017120417 0.028229823 0.03526424 -0.018524893 -0.01755105 -0.009052617 -0.02050806 0.03604776
0.039379448 -0.039881185 0.03134515 0.018419513 0.025831928 -0.04478001 -0.03404151 0.007743258
0.010742228 -0.022499958 -0.028095055 -0.03424797 0.04807957 0.020670533 -0.021676391 0.03964869
0.013504948 0.022008035 0.020933444 0.036767524 -0.031157695 0.011159026 -0.034201145 0.020384967
0.044480503 -0.023601588 -0.018274365 0.039607275 -0.023845566 0.007932479 -0.0038601658 -0.016883424
0.041111547 0.015110465 -0.014895935 -0.0372956 -0.034090776 0.03338137 -0.0013351833 0.028414866
-0.021183636 0.0022491405 -0.019789401 0.03639772 -0.018766755 0.036268968 0.029434755 -0.0018026121
-0.015993154 0.023148594 -0.014981062 -0.0146115925 -0.038057085 -0.0014113544 -0.026093781 0.018148089
-0.020798633 0.018667094 -0.0149551695 0.0135512315 0.016231934 0.03813033 -0.010970849 -0.03833364
0.0016802604 -0.038711958 0.01677058 0.041629665 -0.027833447 0.015305235 0.02885368 -0.00441541
0.03207781 0.011483476 0.0044503557 0.042769466 -0.032316804 0.043344706 0.03570805 -0.046077903
-0.043808453 0.020630114 -0.043941848 -0.0072993785 -0.019618843 7.20133e-05 -0.020942852 0.042765826
0.038742296 0.003001283 0.040529955 -0.040184654 0.032123674 -0.039881054 0.003442989 -0.00959679
0.03893986 0.02445345 -0.04017792 -0.046590038 -0.02789852 -0.035093594 -0.038149897 -0.007875335
0.009806923 -0.016204065 -0.026696783 0.054485742 0.025212739 -0.01600017 -0.022698155 -0.043699637

net.2.weight f4 [256, 256]
00000000: daf5 68bc a237 f73c a01b 403d 691b 05bd
00000010: 98d7 fa3c 783d 893c 9516 a43c 8db3 27bd
00000020: 3765 a23d e8c7 013d c2b4 9bbd 0cfe 8abd
00000030: d0eb da3b b732 c1bc fe3a 563d 16f6 69bd
00000040: 7f96 8c3c 5386 93bd 606d 1c3d 41f9 cf3b
00000050: 0ae3 e83d 99f5 5d3d 2eeb 4fbd 88c8 0fbd
00000060: d380 4abd 3a07 463d 9689 2dbc f72d 9e3c
00000070: eea1 75bd 4c9c 92bc 9143 963d c31d d2bb
00000080: 8c95 283d c4e7 dd3c 08ba 543d c82e 0bbc
00000090: 007f beb9 a727 89bd 86ad f13c 097c 9fbd
000000a0: a5f3 94bd a239 bebc e749 f33c 98c1 31bd
000000b0: cd1a afbd c5e4 d9bc fb0c 523d 628a 2dbd
000000c0: 08ef 2dbd 263f 203a 4595 5e3d f89b ebbb
000000d0: 1b85 913d 650c 873d fe5e 893d b5ba 273d
000000e0: 520d 403d 4e7b 5d3d b0ac ee3b 8558 d339
000000f0: 76d9 4a3b e1b4 7c3c af89 6d3c ad53 903d
00000100: dae3 02bd f121 e13d 04ff 7abc 1857 0c3d
00000110: 350b 9e3c c6a1 94bd 301b a6bd 2545 0b3d
00000120: b214 3e3d b379 1ebd e99b 15bd 28ad 37bc
00000130: a038 383c 504a adbd 1101 283d 621b e93c
00000140: 80ae e13a e054 dfba e402 173d d009 9abb
00000150: 8c92 12bd b4a4 303d e53b ab3c cc2a 0f3d
00000160: f98f 493c 1bd9 5dbd a44a ae3c d98f c93b
00000170: 894b 323d 93b8 00bd fbb9 c33c a00e ae3c
00000180: a845 00bd 17ab a13c d89b 01bd f8c9 e03c
00000190: a36a a1bc 7018 67bd 793f 103c 2e66 44bd
000001a0: 123a 81bd e0e2 713b bf77 84bd 3458 143d
000001b0: c2b2 623d 84b4 53bc 366b 5d3d e3dd 8b3c
000001c0: 1494 66bb 86cc debc dc13 ab3c 6b57 cfbc
000001d0: 9a15 26bd 6dbd 743d d77f 8b3c 78b4 50bc
000001e0: 3f57 1f3d 9e66 87bd 38f7 4f3d 8c20 48bd
000001f0: 801d bfbc c153 3dbd 0cca 8a3c c365 e6bd
00000200: 626d 5a3d 8cae 5b3d dfe8 143d dd63 0ebd
00000210: b79a 493d 7a6e a1bc 6da6 92bc aff9 7abd
00000220: 1f99 4fbd 8a4a acbb 054e 1a3d d0c2 cf3c
00000230: 6cd5 e2bc cc82 bdbc eb62 383c 5e13 2dba
00000240: 429d 11bd c3a4 683d 0f59 b5bc ce92 a1bd
00000250: 4a5e 243d f67f 033e 6520 543c ac4c 123d
00000260: 3536 0fbd 9ac7 2e3c 417c bcbb a3b1 323b
00000270: 2d3a 1c3d 8afe ec3c 5f18 983d c351 a33d
00000280: fb44 85bc 9b7d a63b e068 23bd eae8 443d
00000290: ef4d ae3c af2e 50bd 0d1d 463c a3df 453d
000002a0: aaff 023d 88ac f13c 3e3f 3bbd b25e 8b3c
000002b0: 6ac9 0c3d cd4d 8cbd 8333 2d3d adec 5d3c
000002c0: e1c9 82bd 554f 673d 7fd2 673c 29c4 d4bc
000002d0: d3a3 673d 5b7c 9bbc 546f c53d 5629 b33d
000002e0: 5850 023d fc3a 383d 6045 c2bc 425c 1a3c
000002f0: cb79 2c3d bcff 25bd a081 313d 986b 82bb
00000300: ba1a fe3c 9517 f9bc 570d 153d dc03 a13c
00000310: f438 81bc ea52 9f3d c5a2 99bc 3dab 023d
00000320: 312b 983c c20a bdbc 1011 9d3c 3827 923c
00000330: 8ea6 383d d664 43bd c524 81bd f530 9f3d
00000340: 3ce7 81bc 98f9 0a3d e35b 90bc 2f21 cb3b
00000350: 3619 943d 4b44 b8ba cea7 62bc 375a 543d
00000360: 948f 79bd cb53 babc 1fbd 85bd 50db 853c
00000370: 2b7e 013c d910 61bd 65b8 d83d 2493 433c
00000380: ab78 293d 2012 a53c c810 2c3d 18cc 383d
00000390: 6406 64bd faa5 63bd 67d6 f73b f87c 93bc
000003a0: ab38 923b aecd e2bb 0201 7a3d e358 a33c
000003b0: 0773 cf3c 0136 85bc 23ae 86bc 1447 123d
000003c0: 845f 17bd cc5b 83bb b02d 93bc 7fd7 babc
000003d0: 5864 d23c b8ca 823d 70ca 45bd 18f6 933c
000003e0: cbf6 e7bc 9f26 12bd bc28 033b b80c 583d
000003f0: e8cb 25bd 6736 a83c e562 313d 6842 1abd
-0.014218772 0.030177895 0.046901345 -0.032496843 0.030620381 0.016752943 0.0200303 -0.040942717
0.079294614 0.031684786 -0.07602836 -0.06786737 0.006680943 -0.023583753 0.052302353 -0.05711945
0.017161606 -0.07203355 0.038190246 0.006346852 0.11371429 0.0541893 -0.050761394 -0.03510335
-0.049439263 0.048346736 -0.010591885 0.019309027 -0.05996888 -0.017896794 0.07337106 -0.0064122393
0.041158244 0.027088054 0.051935226 -0.00849504 -0.00036334246 -0.06697016 0.029501688 -0.0778733
-0.07273034 -0.02322084 0.029698325 -0.043397516 -0.08550034 -0.026598344 0.05128191 -0.0423683
-0.042464286 0.00061129255 0.054341573 -0.007190224 0.07105466 0.06594161 0.067075714 0.040949542
0.046887703 0.05407267 0.0072837695 0.00040311008 0.003095237 0.015423984 0.014498158 0.0704721
-0.031955577 0.10992802 -0.0153195895 0.034262747 0.019292453 -0.07257418 -0.08110654 0.03400149
0.046406455 -0.03869028 -0.03652564 -0.011210717 0.011243969 -0.084614396 0.041016642 0.02845544
0.0017218143 -0.0017038845 0.03686799 -0.004700877 -0.03578429 0.043125823 0.020902583 0.034952924
0.012302392 -0.054162126 0.021275826 0.006151181 0.043529067 -0.031426024 0.023892393 0.021247208
-0.03131643 0.019734902 -0.031642765 0.027440056 -0.019704169 -0.05641979 0.008804196 -0.04794901
-0.06309904 0.003690891 -0.06468152 0.03621693 0.055346258 -0.012921456 0.054057322 0.017073577
-0.0035183476 -0.027197134 0.020883493 -0.025310239 -0.040547945 0.059750963 0.017028732 -0.01273834
0.038901564 -0.066113696 0.050772876 -0.048859164 -0.023329496 -0.046222452 0.016942047 -0.11249878
0.05332697 0.053633258 0.036354896 -0.034763206 0.049219813 -0.019706 -0.017901624 -0.061273273
-0.050683137 -0.005257909 0.03767206 0.025361449 -0.027689658 -0.023133658 0.011254053 -0.0006602312
-0.035550363 0.056797754 -0.022137193 -0.07889329 0.040128984 0.12841782 0.012947177 0.03571765
-0.034963805 0.010667706 -0.005752117 0.0027266524 0.03814142 0.028929967 0.074265234 0.07974579
-0.016268244 0.0050808913 -0.03989494 0.048073687 0.021277396 -0.05082577 0.012091887 0.04830898
0.0319821 0.029501215 -0.04571461 0.017012928 0.03437177 -0.06850777 0.042285454 0.013545197
-0.063861616 0.05647214 0.014149307 -0.025972443 0.05655272 -0.018980196 0.09640375 0.087481186
0.031814903 0.044978127 -0.023714721 0.00942141 0.04210834 -0.04052709 0.04333651 -0.0039801113
0.031018604 -0.030406753 0.036389675 0.01965516 -0.015774228 0.077794865 -0.018754372 0.031901587
0.018575283 -0.023076419 0.019173175 0.017840967 0.045080714 -0.047703587 -0.06305841 0.0777301
-0.015857331 0.033929437 -0.01762194 0.006199024 0.07231371 -0.0014058439 -0.013833953 0.051843848
-0.060927942 -0.022745034 -0.065302126 0.016339928 0.007903616 -0.054947708 0.105820455 0.0119369365
0.041374844 0.020150244 0.04200819 0.045116514 -0.055670157 -0.05557821 0.0075634005 -0.018003926
0.0044623218 -0.0069214916 0.061036117 0.019939845 0.025323404 -0.016261103 -0.016440457 0.035712317
-0.036956325 -0.004008746 -0.017966121 -0.022807835 0.025682613 0.06386322 -0.048288763 0.018061683
-0.028315922 -0.035681363 0.0020013293 0.052746505 -0.040477663 0.020533754 0.043307204 -0.037660986

net.2.bias f4 [256]
00000000: d155 51bd 93aa f9bc 095a f4bc 9133 04bd
00000010: b030 8bbc f62d 45bc ee87 503d bb7d ccbc
00000020: cfe4 34bc 7f53 40bd e086 d13c 4a46 12bd
00000030: 0b6b 063d 8757 bb3c 8dd6 a6bc 6b2e 41bc
00000040: bddb 273d aa08 3a3d 21c4 263d 97c4 913c
00000050: d376 ec3c e805 5c3d 3115 1d3d 9424 25bc
00000060: 764e 3cbd 1fd3 edbc e6f3 693c df1b 8cbc
00000070: ea35 adbc 3971 d1ba cf51 983c 0c37 26bd
00000080: c3d6 3ebd e019 07bd ee81 cc3b 50c0 e0bc
00000090: 2434 a93c baf3 d13a 5a01 a5bc 28c8 2d3b
000000a0: fc31 433c 6634 8b3b 3aca e53a 7853 39bc
000000b0: 792f 163d 380e 43bd 6220 b4bb 4fdb 923b
000000c0: f3f3 723d 972d 98bc ba6e bf3c add3 4d3c
000000d0: b8c0 febc c04a dc3c cf41 6e3d 299b 38bc
000000e0: e29d 2e3d 5080 543c 4b33 07bd 6c7f a13c
000000f0: 859d 233d 3ed7 aebc c4c2 96bc aade 8a3c
00000100: a76c 313d 1149 0dbd f1ff 653d 17a5 42bc
00000110: 1bbb b73c 3327 56bd 77e6 6b3d ef1f 39bc
00000120: 9914 253d c001 4dbc e50d 60bd f41f a7bc
00000130: a250 f4bc 8787 0a3d 77b2 483d cbbd 05bd
00000140: e637 60bd 3a02 aa3c d0aa 16bd 2f04 df36
00000150: d1c8 75bd 798c 2e3d aa83 c9bb 1726 efbb
00000160: eaa8 7d3c 3c19 86bb 92b8 7f3d 3e19 573d
00000170: c67f bebc 0ed0 3a3d 7e6d c9bc 63a6 2e3d
00000180: afba 313d c30b a4b7 5ecb 6e3d a565 1abd
00000190: 0cb7 f83c 910b 1d3c 302b 31bd 2fe9 2cbd
000001a0: 0a30 6c3c 275f 7c3d e02e 49bd f722 aa3c
000001b0: 7112 013d 7f1d 9b3c 37d4 2fbc 0eea 4e3d
000001c0: 2c7e 0ebd 2f8d 143c 6fd1 c6bc 450d 9b3c
000001d0: f209 773c 39a3 6cbc 4f59 6f3d 1de2 79bc
000001e0: ab37 483d 3c9b 89bb 3ff1 fbbb 635b a43c
000001f0: d296 7b3c da39 613d 15f5 2dbd 6234 333d
00000200: e43e 00bd 30e1 b93b 96c3 c13c 9633 16bd
00000210: f568 353d 843f 1fbd 32a7 723d cb63 6b3d
00000220: 5df1 c93c a91a 14bc 50c5 26bd cb67 953c
00000230: a744 f7bc 5d44 67bd f8dd 443d 2128 153d
00000240: 6138 6a3d b030 743d 56d4 f9bc c997 81bc
00000250: 3db2 20bd 8f81 6a3d 4fc7 ae3c fe28 0ebd
00000260: b4c8 fcbc 3335 90bc b4fc a03c e6d9 fb3c
00000270: f2c3 393d c099 4ebd 062d 043c 1864 b8b9
00000280: b993 733d da7b ccbb 7aa0 e9bc 823d 6a3b
00000290: b0e6 c23c 7c56 6a3d 8142 f23c a8c7 573d
000002a0: b325 16bd dcea 76bd a925 7d3d c81a 1abd
000002b0: 8bd0 f23b af4d 863d aa20 3dbd 70c0 a73c
000002c0: b43a e93b 7c1d c7bc 2585 cbbc c3ca 0d3d
000002d0: 1fbb 383d f322 a73c f1ab 493d 0c24 2e3d
000002e0: dc32 39bd 81bd f13c 6704 35bd 3e5a 45bc
000002f0: 9d5c f13b d517 67bd 4a9d 13bd 1099 fcbc
00000300: 06d6 473b af65 4abc 56b0 473d 9e1d 0bbd
00000310: ea17 c83a 970a 6abd 1b06 da3c cd0c 2e3d
00000320: 06ac 4fbd 3a65 39bd d283 313d 89ea eebc
00000330: 0369 d5bc c761 9e39 809c 103d 02b2 48bc
00000340: 20a6 d1bc 3586 6abc e9de 4f3d 8909 813d
00000350: d0c2 22bd e97c 863d 5ed2 373b 4127 b0bc
00000360: a571 8fbb ea1c e73a 56fe b4bb ec8d 893d
00000370: 753c f2ba 55de 343d 5ada bbbc 0deb f4bc
00000380: b753 b63c 5b82 5fbd 56e6 1c3d efa5 493d
00000390: 4b07 04ba 72b4 e0ba cc9c f13b 90c0 29bd
000003a0: 7240 743d 4ed0 dbbc 9ad2 4e3d 1ce2 77bd
000003b0: d3e6 3f3c 3550 083d 7eac 7b3d 54c5 663d
000003c0: 8a74 d9bb 66bb 36ba 3a80 dfbb 6249 58bd
000003d0: cf8d 6b3d e83c a8bc 04f9 9abb 2000 f8bc
000003e0: a197 083d f6ae fb3c 586b 033d 5278 0abd
000003f0: 769b 17bd 92d7 02bd 322a 4e3d 417e 8cbc
-0.05110723 -0.030476844 -0.029828088 -0.03227574 -0.01699099 -0.012034884 0.050910883 -0.024962297
-0.01104088 -0.046954628 0.025577009 -0.035711564 0.032816928 0.022868885 -0.020365978 -0.011790852
0.040981043 0.04541842 0.040714387 0.017793937 0.028865254 0.05371657 0.038350288 -0.010079522
-0.045973264 -0.029031334 0.014279341 -0.017103134 -0.021143872 -0.0015979178 0.018593697 -0.04057984
-0.04659153 -0.03298366 0.0062410748 -0.027435452 0.020654745 0.0016018071 -0.020142246 0.0026517007
0.011913773 0.0042481897 0.0017531582 -0.011311404 0.036666367 -0.047620982 -0.0054970244 0.00448171
0.05931468 -0.018576426 0.023368228 0.0125626745 -0.031097755 0.026891112 0.05816823 -0.011267462
0.042631038 0.012970045 -0.0330079 0.01971408 0.039945144 -0.02134287 -0.018403418 0.016951878
0.04331651 -0.03449351 0.056152288 -0.011880181 0.022428086 -0.052283477 0.057592835 -0.0112991175
0.040302847 -0.012512624 -0.05470075 -0.020400979 -0.029823605 0.033820655 0.048998322 -0.032651704
-0.05474081 0.020753015 -0.036783993 6.646405e-06 -0.060005967 0.042614434 -0.006149729 -0.007298242
0.015482167 -0.0040923636 0.06243188 0.052514307 -0.023254286 0.045608573 -0.024588343 0.042639147
0.043390926 -1.95558e-05 0.058299415 -0.037694592 0.030360721 0.009585277 -0.043254077 -0.04221457
0.01441575 0.06161418 -0.04911697 0.020768626 0.031511728 0.018934963 -0.010731748 0.05051618
-0.034788296 0.009066864 -0.024269788 0.018927226 0.015078055 -0.014443212 0.05843478 -0.0152516635
0.048881214 -0.0041994136 -0.007688671 0.020063108 0.015355783 0.054986812 -0.042470057 0.043751128
-0.031309977 0.0056725964 0.023652833 -0.03667029 0.044289548 -0.038878933 0.05924148 0.057468217
0.024651224 -0.009039559 -0.040715516 0.018237969 -0.030184103 -0.05646168 0.04806325 0.036415223
0.057182673 0.059616745 -0.030496757 -0.015819447 -0.03923248 0.057252463 0.021335272 -0.034707062
-0.030857421 -0.017603492 0.019651748 0.03074355 0.045352884 -0.050439596 0.008067375 -0.0003516979
0.05946705 -0.00624035 -0.028518904 0.0035742228 0.023791641 0.057211384 0.029572727 0.05268064
-0.036657047 -0.060282573 0.061803494 -0.037623197 0.007410114 0.06557786 -0.04617373 0.020477504
0.0071175937 -0.024306051 -0.024843762 0.034617197 0.045100328 0.020402407 0.04923624 0.042514846
-0.04521452 0.029509308 -0.04419365 -0.012045441 0.0073657767 -0.056419212 -0.036038674 -0.030834705
0.0030492558 -0.012353345 0.04875215 -0.033963792 0.0015265916 -0.057139006 0.02661424 0.042492677
-0.050701164 -0.045262553 0.043338604 -0.02916457 -0.02605105 0.00030208958 0.0353055 -0.012249472
-0.02559191 -0.014314224 0.050749693 0.06300647 -0.03973657 0.065667935 0.0028048973 -0.021503093
-0.004377561 0.0017632518 -0.0055234833 0.067165226 -0.0018481152 0.044157345 -0.022931267 -0.029897237
0.022256715 -0.054567676 0.038305603 0.049230512 -0.0005036487 -0.0017143621 0.007373428 -0.041443408
0.059631772 -0.026832726 0.050493814 -0.06051837 0.011712748 0.033279616 0.0614438 0.05634053
-0.006636207 -0.00069706736 -0.0068207057 -0.05280436 0.057508286 -0.020536855 -0.004729392 -0.030273497
0.03334773 0.030723076 0.032084793 -0.033806153 -0.037013493 -0.031943865 0.05033321 -0.017150046

net.4.weight f4 [7, 256]
00000000: 2340 2cbc e056 eebc e42e 703c b46d b23d
00000010: 81b1 7c3d 05f9 89bc aae5 733d d692 d93d
00000020: 3423 3c3c 527d 87bb 4177 83bc 1df2 88bc
00000030: 8a1e f63d 2368 61bd 572a 48bd 1f4a 6dbd
00000040: 7d01 c8bd 61e6 ccbd f679 193e a737 783b
00000050: c0f0 f0bc 2ca6 6fbd 6bef 923d fe56 1abd
00000060: 0574 e4bd 09a1 4fbc fa15 b33c 0663 8b3d
00000070: c6a7 ddbc 32fb b1bd 76de 80bd e10e 87bd
00000080: 45ab 09bd 27fd f1ba e6a8 9e3d 207e f73b
00000090: 01cb 993d 06ab ff3c b228 663d c98c e13c
000000a0: c228 a8bc 55eb b9bb 25b5 a6bb 55a3 b13d
000000b0: ffad b9bd 729d 043e 6b16 79bd 909f 2f3d
000000c0: 1c4d 793d 0687 693c 6c90 1d3d fe3f b33b
000000d0: 998e 2bbe 8386 063e 87fc 723d 7398 333d
000000e0: bb97 b33d 3052 16bd b547 bebc 22d4 f53d
000000f0: 0dab 93bc 44a9 55bb d623 92bd 2b2f d7bd
00000100: 72c4 a1bb 7cdb c2bd ae89 cc3c ddb0 9fbd
00000110: be2a 8abd f7a5 33bd e9a4 f93c 8e55 83bd
00000120: 5f0a 913c 4050 68bc 1009 bdbd 1da5 783d
00000130: fc5d 93bd ef01 183c a060 a4bd c14d 803d
00000140: 51c7 b9bd a388 3a3d e7a1 173d 7d85 553d
00000150: c27f 82bd 079f 69bc f1cc 4d3d 9a62 c53c
00000160: ea36 803d 79dd 3c3d 14f3 25bd 9651 713c
00000170: 1a61 973d 0d00 eb3b 9e47 fcbd d28e 103d
00000180: 71fe ccbc 012a 84bd f6cb 3abc 584d 0cbe
00000190: 5561 51bd 7c9c 853d 9116 a23d 2289 133e
000001a0: 76ef a53c 65fc 3d3d 566f 913d 4260 a4bd
000001b0: 21a0 1fbd 7af5 603d 7b2b 453e 1a86 55bd
000001c0: 7486 b4bd 6afe 04be 7a71 5f3b 9e9b 3b3e
000001d0: bf93 bbbd 26b6 e0bc 5984 a83d 22f6 efbc
000001e0: 2659 b8bc 5c2d 9c3d 5621 2c3c 3fc9 14bd
000001f0: 8abd 9f3e 7cc4 4fbb b21a 51ba 62b2 ccbd
00000200: ab1b 813c 2c5b afbb 20a2 193d 8edb b0bc
00000210: 337b 0dbd 65cf 443d 0dd9 c4bd be46 3f3d
00000220: cb66 f9bc f60b a33c 3439 3e3c c393 50bc
00000230: 2083 9fbc ef0f 7c3d d43c a53b 8a08 b33d
00000240: b69d f4bd fe1f 9bbd 731e 0f3d 69b9 8f3d
00000250: 4190 b93d f0c2 46bd 9c42 b7bc a884 33be
00000260: 66ab bb3c 0dfb d73c 50ef 903b 650b 083d
00000270: edae 10be 991f d03c d10a b03c 9ba1 70bd
00000280: 24ae 643d ed6c b7bd 2e7b b0bd 0701 a2bd
00000290: c54b d43d d668 603d 2c6f f9bd ca0e f2bd
000002a0: a8c4 60bc 9915 42bd d412 c4bc bc53 eabc
000002b0: 2dd9 2ebd 2509 a23d 5898 d63b 878a b1bd
000002c0: f5db 7fbd b611 3dbc d905 01be ec01 b83d
000002d0: 0d8e 9dbd 493e b63d 67c5 473d 1ae8 4c3d
000002e0: 2603 91bd 492e d93c ecc9 653d 3907 c33d
000002f0: 2d82 763d ab60 f63c 8f1d c5bd 1792 cc3a
00000300: 08f0 70bd a9e0 913d 4913 a03d 829f c63d
00000310: 1bdc e73d 6960 5d3c 66ca 8dbd ad03 80bb
00000320: 488b 9bbc 8b5a b7bd 4889 1dbd 986d 893c
00000330: 3e15 8f3c ee13 6e3d ae69 563d 4ec2 fe3c
00000340: 03e0 a9bd b2c8 a7bd 1054 9ebd 13ec 8fbd
00000350: 80fd fbba cb47 e73d af14 543d 9cfb 613d
00000360: f0b7 b9bd 4ac7 8dbd 5508 d1bd 414e 0cbd
00000370: e450 42bd af00 21be f731 94bd b565 033e
00000380: e5ba ff3c 09cc efbc 2a8f 893d f852 c4bd
00000390: c01f b23d ac7c 8c3c 943d acbd 1f4b 833c
000003a0: e5c9 e83c 6b94 713d 1996 7cbd cd2e 223d
000003b0: 8d89 073e b0dd 7c3c 7228 7c3d cab6 b73c
000003c0: 780f a9bc 3588 3e3d 3eca 113d e6c9 80bb
000003d0: bd0c 013d 0d78 6bbe b497 bd3c 66dc 49be
000003e0: 5b5c 6dbd d2b8 f2bd 7b3b a43d 18d1 9e3c
000003f0: 21ec 03bc 9cc8 34bd a888 ce3b 6502 323c
-0.010513338 -0.02909416 0.014659617 0.087123305 0.06169272 -0.016842375 0.059545197 0.1062371
0.011483002 -0.0041348124 -0.016048076 -0.016717011 0.120175436 -0.055030953 -0.048868503 -0.057932016
-0.09765909 -0.10004879 0.1498793 0.0037874968 -0.029411674 -0.058508083 0.071745716 -0.03768062
-0.111549415 -0.012672671 0.021861065 0.068059966 -0.02705754 -0.0869049 -0.06292431 -0.06594635
-0.0336106 -0.0018462286 0.077470586 0.007552877 0.07509423 0.03120948 0.056191154 0.027532952
-0.020527247 -0.0056738057 -0.005087512 0.08673731 -0.0906639 0.12950686 -0.060812395 0.04287678
0.060864553 0.0142533835 0.03846781 0.005470275 -0.16753615 0.1313725 0.05932286 0.04384656
0.08769175 -0.036699474 -0.023227552 0.12003352 -0.0180259 -0.003260211 -0.071357414 -0.105070435
-0.004936748 -0.095145196 0.024967995 -0.07797406 -0.06746434 -0.04385945 0.030474143 -0.06412803
0.01770514 -0.014179289 -0.09230244 0.06070434 -0.071956605 0.009277805 -0.08026242 0.062648304
-0.0907122 0.045540463 0.037019636 0.052129257 -0.06372024 -0.0142591065 0.050244275 0.024094868
0.06260474 0.04610965 -0.04051502 0.014728924 0.073915675 0.007171637 -0.123183474 0.035292454
-0.02502367 -0.06453324 -0.011401167 -0.1370138 -0.051118214 0.06523988 0.079144605 0.14407781
0.020255785 0.04638328 0.07101314 -0.08026172 -0.03897107 0.054921605 0.19254868 -0.052129842
-0.088147074 -0.12987676 0.0034094737 0.18321082 -0.0915904 -0.027430605 0.08228368 -0.02929217
-0.022503447 0.07625839 0.010505995 -0.036324736 0.31199294 -0.0031702807 -0.0007976695 -0.09994961
0.015760263 -0.0053514447 0.03750813 -0.021589067 -0.03454132 0.04804935 -0.09611712 0.046698324
-0.030444523 0.019903164 0.011610318 -0.012730542 -0.019471705 0.061538633 0.0050426517 0.08741863
-0.119441435 -0.075744614 0.034941148 0.07017786 0.090607174 -0.04852575 -0.022370629 -0.17531073
0.022908878 0.026364828 0.0044230595 0.03321399 -0.14129229 0.025405692 0.021489533 -0.05874787
0.055830136 -0.08956323 -0.08617245 -0.07910352 0.103660144 0.05478748 -0.121794075 -0.11819227
-0.0137187615 -0.04738388 -0.02393476 -0.02860438 -0.042687584 0.079119004 0.0065489225 -0.08669
-0.062465627 -0.011539867 -0.12599887 0.089847416 -0.0769311 0.08898599 0.048772242 0.050026037
-0.07080679 0.026511328 0.05610077 0.09522862 0.06018274 0.030075392 -0.096247785 0.0015607503
-0.05882266 0.07122929 0.07816178 0.096983925 0.11321279 0.0135117555 -0.0692337 -0.003906688
-0.018987313 -0.089528166 -0.038461 0.016775891 0.017466184 0.058124475 0.052346878 0.031098511
-0.0829468 -0.081925765 -0.077308774 -0.070274495 -0.0019225329 0.1129299 0.051777538 0.055171594
-0.090682864 -0.06922777 -0.10206667 -0.034254316 -0.047440425 -0.15722917 -0.072360925 0.12831767
0.031217048 -0.029272096 0.067167595 -0.095861375 0.08697462 0.017149292 -0.084101826 0.016027031
0.028416583 0.058979433 -0.06166658 0.039595414 0.13236065 0.015433714 0.06156201 0.022426028
-0.020637259 0.046516616 0.035593264 -0.003930318 0.03150629 -0.22995014 0.023143627 -0.19712982
-0.057949405 -0.11851658 0.080191575 0.019386813 -0.008051903 -0.04413663 0.006302912 0.010864829

net.4.bias f4 [7]
00000000: 399a 8fbc 3087 cd3c 67b1 5d3d b414 6e3d
00000010: 2e5b 223d 908d 8ebb 1a2f d03c
-0.017529594 0.025088876 0.054124262 0.058125213 0.039637737 -0.0043503717 0.025413085
